…
device cuda
seed 111
shuffle_nodes False
torch_geom False
adj_sq False
scale_identity False
visualize False
use_cont_node_attr False
Loading data
N nodes avg/std/min/max: 	39.06/45.76/4/620
N edges avg/std/min/max: 	72.82/84.60/5/1049
Node degree avg/std/min/max: 	3.73/1.15/0/25
Node features dim: 		3
N classes: 			2
Classes: 			[0 1]
Class 0: 			663 samples
Class 1: 			450 samples
feature 0, count 21151/43471
feature 1, count 20931/43471
feature 2, count 1389/43471
TRAIN: 1001/1113
TEST: 112/1113

FOLD 0, train 1001, test 112

Initialize model
MGCN(
  (gconv): Sequential(
    (0): GraphConv(
      (fc): Linear(in_features=12, out_features=32, bias=True)
      (activation): ReLU(inplace)
      (bn): BatchNorm1d(32, eps=1e-05, momentum=0.1, affine=True, track_running_stats=True)
    )
    (1): GraphConv(
      (fc): Linear(in_features=128, out_features=32, bias=True)
      (activation): ReLU(inplace)
      (bn): BatchNorm1d(32, eps=1e-05, momentum=0.1, affine=True, track_running_stats=True)
    )
    (2): GraphConv(
      (fc): Linear(in_features=128, out_features=32, bias=True)
      (activation): ReLU(inplace)
      (bn): BatchNorm1d(32, eps=1e-05, momentum=0.1, affine=True, track_running_stats=True)
    )
  )
  (edge_pred): Sequential(
    (0): Linear(in_features=6, out_features=32, bias=True)
    (1): ReLU(inplace)
    (2): Linear(in_features=32, out_features=1, bias=True)
  )
  (fc): Sequential(
    (0): Dropout(p=0.1)
    (1): Linear(in_features=32, out_features=96, bias=True)
    (2): Dropout(p=0.1)
    (3): Linear(in_features=96, out_features=2, bias=True)
  )
)
N trainable parameters: 12483
Train Epoch: 1 [32/1001 (3%)]	Loss: 0.728943 (avg: 0.728943) 	sec/iter: 0.1041
Train Epoch: 1 [352/1001 (34%)]	Loss: 0.513764 (avg: 0.659511) 	sec/iter: 0.0851
Train Epoch: 1 [672/1001 (66%)]	Loss: 0.543297 (avg: 0.615839) 	sec/iter: 0.0814
Train Epoch: 1 [992/1001 (97%)]	Loss: 0.739422 (avg: 0.612733) 	sec/iter: 0.0792
…
