using torch 1.0.0
dataset ENZYMES
model mgcn
lr 0.001
lr_decay_steps [25, 35, 45]
wd 0.0001
dropout 0.1
filters [32, 64, 512]
filter_scale 4
n_hidden 256
n_hidden_edge 128
epochs 50
batch_size 32
bn True
threads 0
log_interval 10
device cuda
seed 111
shuffle_nodes False
torch_geom True
adj_sq False
scale_identity False
visualize False
use_cont_node_attr False
Loading data

FOLD 0, train 540, test 60

Initialize model
MGCN(
  (gconv): Sequential(
    (0): GraphConv(
      (fc): Linear(in_features=24, out_features=32, bias=True)
      (activation): ReLU(inplace)
      (bn): BatchNorm1d(32, eps=1e-05, momentum=0.1, affine=True, track_running_stats=True)
    )
    (1): GraphConv(
      (fc): Linear(in_features=256, out_features=64, bias=True)
      (activation): ReLU(inplace)
      (bn): BatchNorm1d(64, eps=1e-05, momentum=0.1, affine=True, track_running_stats=True)
    )
    (2): GraphConv(
      (fc): Linear(in_features=512, out_features=512, bias=True)
      (activation): ReLU(inplace)
      (bn): BatchNorm1d(512, eps=1e-05, momentum=0.1, affine=True, track_running_stats=True)
    )
  )
  (edge_pred): Sequential(
    (0): Linear(in_features=6, out_features=128, bias=True)
    (1): ReLU(inplace)
    (2): Linear(in_features=128, out_features=1, bias=True)
  )
  (fc): Sequential(
    (0): Dropout(p=0.1)
    (1): Linear(in_features=512, out_features=256, bias=True)
    (2): Dropout(p=0.1)
    (3): Linear(in_features=256, out_features=6, bias=True)
  )
)
N trainable parameters: 415015
Train Epoch: 1 [32/540 (6%)]	Loss: 1.870147 (avg: 1.870147) 	sec/iter: 0.1305
Train Epoch: 1 [352/540 (65%)]	Loss: 2.024352 (avg: 2.032276) 	sec/iter: 0.0986
Train Epoch: 1 [540/540 (100%)]	Loss: 1.724107 (avg: 1.975873) 	sec/iter: 0.0977
Train Epoch: 2 [32/540 (6%)]	Loss: 1.430673 (avg: 1.430673) 	sec/iter: 0.0915
Train Epoch: 2 [352/540 (65%)]	Loss: 1.746947 (avg: 1.736854) 	sec/iter: 0.0959
…
